<?xml version="1.0" ?>
<net name="torch-jit-export" version="11">
	<layers>
		<layer id="0" name="0" type="Parameter" version="opset1">
			<data shape="1,3,48,48" element_type="f32"/>
			<rt_info>
				<attribute name="fused_names" version="0" value="0"/>
			</rt_info>
			<output>
				<port id="0" precision="FP32" names="0">
					<dim>1</dim>
					<dim>3</dim>
					<dim>48</dim>
					<dim>48</dim>
					<rt_info>
						<attribute name="layout" version="0" layout="[N,C,H,W]"/>
					</rt_info>
				</port>
			</output>
		</layer>
		<layer id="1" name="Range_293" type="Const" version="opset1">
			<data element_type="i32" shape="3" offset="0" size="12"/>
			<output>
				<port id="0" precision="I32">
					<dim>3</dim>
				</port>
			</output>
		</layer>
		<layer id="2" name="Constant_294" type="Const" version="opset1">
			<data element_type="i32" shape="1" offset="12" size="4"/>
			<rt_info>
				<attribute name="fused_names" version="0" value="Constant_294"/>
			</rt_info>
			<output>
				<port id="0" precision="I32">
					<dim>1</dim>
				</port>
			</output>
		</layer>
		<layer id="3" name="Gather_295" type="Gather" version="opset8">
			<data batch_dims="0"/>
			<rt_info>
				<attribute name="fused_names" version="0" value="Gather_295, Range_293"/>
				<attribute name="preprocessing" version="0"/>
			</rt_info>
			<input>
				<port id="0" precision="FP32">
					<dim>1</dim>
					<dim>3</dim>
					<dim>48</dim>
					<dim>48</dim>
				</port>
				<port id="1" precision="I32">
					<dim>3</dim>
				</port>
				<port id="2" precision="I32">
					<dim>1</dim>
				</port>
			</input>
			<output>
				<port id="3" precision="FP32">
					<dim>1</dim>
					<dim>3</dim>
					<dim>48</dim>
					<dim>48</dim>
				</port>
			</output>
		</layer>
		<layer id="4" name="Constant_1030" type="Const" version="opset1">
			<data element_type="f32" shape="1" offset="16" size="4"/>
			<output>
				<port id="0" precision="FP32">
					<dim>1</dim>
				</port>
			</output>
		</layer>
		<layer id="5" name="Divide_297" type="Multiply" version="opset1">
			<data auto_broadcast="numpy"/>
			<rt_info>
				<attribute name="fused_names" version="0" value="Constant_296, Divide_297"/>
				<attribute name="preprocessing" version="0"/>
			</rt_info>
			<input>
				<port id="0" precision="FP32">
					<dim>1</dim>
					<dim>3</dim>
					<dim>48</dim>
					<dim>48</dim>
				</port>
				<port id="1" precision="FP32">
					<dim>1</dim>
				</port>
			</input>
			<output>
				<port id="2" precision="FP32">
					<dim>1</dim>
					<dim>3</dim>
					<dim>48</dim>
					<dim>48</dim>
				</port>
			</output>
		</layer>
		<layer id="6" name="Reshape_1049" type="Const" version="opset1">
			<data element_type="f32" shape="1, 3, 1, 1" offset="20" size="12"/>
			<output>
				<port id="0" precision="FP32">
					<dim>1</dim>
					<dim>3</dim>
					<dim>1</dim>
					<dim>1</dim>
				</port>
			</output>
		</layer>
		<layer id="7" name="Subtract_1052" type="Subtract" version="opset1">
			<data auto_broadcast="numpy"/>
			<rt_info>
				<attribute name="fused_names" version="0" value="67"/>
			</rt_info>
			<input>
				<port id="0" precision="FP32">
					<dim>1</dim>
					<dim>3</dim>
					<dim>48</dim>
					<dim>48</dim>
				</port>
				<port id="1" precision="FP32">
					<dim>1</dim>
					<dim>3</dim>
					<dim>1</dim>
					<dim>1</dim>
				</port>
			</input>
			<output>
				<port id="2" precision="FP32">
					<dim>1</dim>
					<dim>3</dim>
					<dim>48</dim>
					<dim>48</dim>
				</port>
			</output>
		</layer>
		<layer id="8" name="Reshape_1043" type="Const" version="opset1">
			<data element_type="f32" shape="1, 3, 1, 1" offset="32" size="12"/>
			<output>
				<port id="0" precision="FP32">
					<dim>1</dim>
					<dim>3</dim>
					<dim>1</dim>
					<dim>1</dim>
				</port>
			</output>
		</layer>
		<layer id="9" name="Multiply_1053" type="Multiply" version="opset1">
			<data auto_broadcast="numpy"/>
			<rt_info>
				<attribute name="fused_names" version="0" value="67"/>
			</rt_info>
			<input>
				<port id="0" precision="FP32">
					<dim>1</dim>
					<dim>3</dim>
					<dim>48</dim>
					<dim>48</dim>
				</port>
				<port id="1" precision="FP32">
					<dim>1</dim>
					<dim>3</dim>
					<dim>1</dim>
					<dim>1</dim>
				</port>
			</input>
			<output>
				<port id="2" precision="FP32">
					<dim>1</dim>
					<dim>3</dim>
					<dim>48</dim>
					<dim>48</dim>
				</port>
			</output>
		</layer>
		<layer id="10" name="Reshape_1046" type="Const" version="opset1">
			<data element_type="f32" shape="1, 3, 1, 1" offset="44" size="12"/>
			<output>
				<port id="0" precision="FP32">
					<dim>1</dim>
					<dim>3</dim>
					<dim>1</dim>
					<dim>1</dim>
				</port>
			</output>
		</layer>
		<layer id="11" name="67" type="Add" version="opset1">
			<data auto_broadcast="numpy"/>
			<rt_info>
				<attribute name="fused_names" version="0" value="67"/>
			</rt_info>
			<input>
				<port id="0" precision="FP32">
					<dim>1</dim>
					<dim>3</dim>
					<dim>48</dim>
					<dim>48</dim>
				</port>
				<port id="1" precision="FP32">
					<dim>1</dim>
					<dim>3</dim>
					<dim>1</dim>
					<dim>1</dim>
				</port>
			</input>
			<output>
				<port id="2" precision="FP32" names="67">
					<dim>1</dim>
					<dim>3</dim>
					<dim>48</dim>
					<dim>48</dim>
				</port>
			</output>
		</layer>
		<layer id="12" name="6" type="Const" version="opset1">
			<data element_type="f32" shape="16, 3, 3, 3" offset="56" size="1728"/>
			<rt_info>
				<attribute name="fused_names" version="0" value="6"/>
			</rt_info>
			<output>
				<port id="0" precision="FP32" names="6">
					<dim>16</dim>
					<dim>3</dim>
					<dim>3</dim>
					<dim>3</dim>
				</port>
			</output>
		</layer>
		<layer id="13" name="Convolution_72" type="Convolution" version="opset1">
			<data strides="1, 1" dilations="1, 1" pads_begin="1, 1" pads_end="1, 1" auto_pad="explicit"/>
			<rt_info>
				<attribute name="fused_names" version="0" value="Convolution_72"/>
			</rt_info>
			<input>
				<port id="0" precision="FP32">
					<dim>1</dim>
					<dim>3</dim>
					<dim>48</dim>
					<dim>48</dim>
				</port>
				<port id="1" precision="FP32">
					<dim>16</dim>
					<dim>3</dim>
					<dim>3</dim>
					<dim>3</dim>
				</port>
			</input>
			<output>
				<port id="2" precision="FP32">
					<dim>1</dim>
					<dim>16</dim>
					<dim>48</dim>
					<dim>48</dim>
				</port>
			</output>
		</layer>
		<layer id="14" name="Reshape_83" type="Const" version="opset1">
			<data element_type="f32" shape="1, 16, 1, 1" offset="1784" size="64"/>
			<output>
				<port id="0" precision="FP32">
					<dim>1</dim>
					<dim>16</dim>
					<dim>1</dim>
					<dim>1</dim>
				</port>
			</output>
		</layer>
		<layer id="15" name="68" type="Add" version="opset1">
			<data auto_broadcast="numpy"/>
			<rt_info>
				<attribute name="fused_names" version="0" value="68, Concat_82, Reshape_83"/>
			</rt_info>
			<input>
				<port id="0" precision="FP32">
					<dim>1</dim>
					<dim>16</dim>
					<dim>48</dim>
					<dim>48</dim>
				</port>
				<port id="1" precision="FP32">
					<dim>1</dim>
					<dim>16</dim>
					<dim>1</dim>
					<dim>1</dim>
				</port>
			</input>
			<output>
				<port id="2" precision="FP32" names="68">
					<dim>1</dim>
					<dim>16</dim>
					<dim>48</dim>
					<dim>48</dim>
				</port>
			</output>
		</layer>
		<layer id="16" name="8" type="Const" version="opset1">
			<data element_type="f32" shape="1" offset="1848" size="4"/>
			<rt_info>
				<attribute name="fused_names" version="0" value="8"/>
			</rt_info>
			<output>
				<port id="0" precision="FP32" names="8">
					<dim>1</dim>
				</port>
			</output>
		</layer>
		<layer id="17" name="69" type="PReLU" version="opset1">
			<rt_info>
				<attribute name="fused_names" version="0" value="69"/>
			</rt_info>
			<input>
				<port id="0" precision="FP32">
					<dim>1</dim>
					<dim>16</dim>
					<dim>48</dim>
					<dim>48</dim>
				</port>
				<port id="1" precision="FP32">
					<dim>1</dim>
				</port>
			</input>
			<output>
				<port id="2" precision="FP32" names="69">
					<dim>1</dim>
					<dim>16</dim>
					<dim>48</dim>
					<dim>48</dim>
				</port>
			</output>
		</layer>
		<layer id="18" name="70" type="MaxPool" version="opset1">
			<data strides="2, 2" pads_begin="0, 0" pads_end="0, 0" kernel="2, 2" rounding_type="floor" auto_pad="explicit"/>
			<rt_info>
				<attribute name="fused_names" version="0" value="70"/>
			</rt_info>
			<input>
				<port id="0" precision="FP32">
					<dim>1</dim>
					<dim>16</dim>
					<dim>48</dim>
					<dim>48</dim>
				</port>
			</input>
			<output>
				<port id="1" precision="FP32" names="70">
					<dim>1</dim>
					<dim>16</dim>
					<dim>24</dim>
					<dim>24</dim>
				</port>
			</output>
		</layer>
		<layer id="19" name="Reshape_1072" type="Const" version="opset1">
			<data element_type="f32" shape="1, 16, 1, 1" offset="1852" size="64"/>
			<output>
				<port id="0" precision="FP32">
					<dim>1</dim>
					<dim>16</dim>
					<dim>1</dim>
					<dim>1</dim>
				</port>
			</output>
		</layer>
		<layer id="20" name="Subtract_1075" type="Subtract" version="opset1">
			<data auto_broadcast="numpy"/>
			<rt_info>
				<attribute name="fused_names" version="0" value="71"/>
			</rt_info>
			<input>
				<port id="0" precision="FP32">
					<dim>1</dim>
					<dim>16</dim>
					<dim>24</dim>
					<dim>24</dim>
				</port>
				<port id="1" precision="FP32">
					<dim>1</dim>
					<dim>16</dim>
					<dim>1</dim>
					<dim>1</dim>
				</port>
			</input>
			<output>
				<port id="2" precision="FP32">
					<dim>1</dim>
					<dim>16</dim>
					<dim>24</dim>
					<dim>24</dim>
				</port>
			</output>
		</layer>
		<layer id="21" name="Reshape_1066" type="Const" version="opset1">
			<data element_type="f32" shape="1, 16, 1, 1" offset="1916" size="64"/>
			<output>
				<port id="0" precision="FP32">
					<dim>1</dim>
					<dim>16</dim>
					<dim>1</dim>
					<dim>1</dim>
				</port>
			</output>
		</layer>
		<layer id="22" name="Multiply_1076" type="Multiply" version="opset1">
			<data auto_broadcast="numpy"/>
			<rt_info>
				<attribute name="fused_names" version="0" value="71"/>
			</rt_info>
			<input>
				<port id="0" precision="FP32">
					<dim>1</dim>
					<dim>16</dim>
					<dim>24</dim>
					<dim>24</dim>
				</port>
				<port id="1" precision="FP32">
					<dim>1</dim>
					<dim>16</dim>
					<dim>1</dim>
					<dim>1</dim>
				</port>
			</input>
			<output>
				<port id="2" precision="FP32">
					<dim>1</dim>
					<dim>16</dim>
					<dim>24</dim>
					<dim>24</dim>
				</port>
			</output>
		</layer>
		<layer id="23" name="Reshape_1069" type="Const" version="opset1">
			<data element_type="f32" shape="1, 16, 1, 1" offset="1980" size="64"/>
			<output>
				<port id="0" precision="FP32">
					<dim>1</dim>
					<dim>16</dim>
					<dim>1</dim>
					<dim>1</dim>
				</port>
			</output>
		</layer>
		<layer id="24" name="71" type="Add" version="opset1">
			<data auto_broadcast="numpy"/>
			<rt_info>
				<attribute name="fused_names" version="0" value="71"/>
			</rt_info>
			<input>
				<port id="0" precision="FP32">
					<dim>1</dim>
					<dim>16</dim>
					<dim>24</dim>
					<dim>24</dim>
				</port>
				<port id="1" precision="FP32">
					<dim>1</dim>
					<dim>16</dim>
					<dim>1</dim>
					<dim>1</dim>
				</port>
			</input>
			<output>
				<port id="2" precision="FP32" names="71">
					<dim>1</dim>
					<dim>16</dim>
					<dim>24</dim>
					<dim>24</dim>
				</port>
			</output>
		</layer>
		<layer id="25" name="14" type="Const" version="opset1">
			<data element_type="f32" shape="32, 16, 3, 3" offset="2044" size="18432"/>
			<rt_info>
				<attribute name="fused_names" version="0" value="14"/>
			</rt_info>
			<output>
				<port id="0" precision="FP32" names="14">
					<dim>32</dim>
					<dim>16</dim>
					<dim>3</dim>
					<dim>3</dim>
				</port>
			</output>
		</layer>
		<layer id="26" name="Convolution_95" type="Convolution" version="opset1">
			<data strides="1, 1" dilations="1, 1" pads_begin="1, 1" pads_end="1, 1" auto_pad="explicit"/>
			<rt_info>
				<attribute name="fused_names" version="0" value="Convolution_95"/>
			</rt_info>
			<input>
				<port id="0" precision="FP32">
					<dim>1</dim>
					<dim>16</dim>
					<dim>24</dim>
					<dim>24</dim>
				</port>
				<port id="1" precision="FP32">
					<dim>32</dim>
					<dim>16</dim>
					<dim>3</dim>
					<dim>3</dim>
				</port>
			</input>
			<output>
				<port id="2" precision="FP32">
					<dim>1</dim>
					<dim>32</dim>
					<dim>24</dim>
					<dim>24</dim>
				</port>
			</output>
		</layer>
		<layer id="27" name="Reshape_106" type="Const" version="opset1">
			<data element_type="f32" shape="1, 32, 1, 1" offset="20476" size="128"/>
			<output>
				<port id="0" precision="FP32">
					<dim>1</dim>
					<dim>32</dim>
					<dim>1</dim>
					<dim>1</dim>
				</port>
			</output>
		</layer>
		<layer id="28" name="72" type="Add" version="opset1">
			<data auto_broadcast="numpy"/>
			<rt_info>
				<attribute name="fused_names" version="0" value="72, Concat_105, Reshape_106"/>
			</rt_info>
			<input>
				<port id="0" precision="FP32">
					<dim>1</dim>
					<dim>32</dim>
					<dim>24</dim>
					<dim>24</dim>
				</port>
				<port id="1" precision="FP32">
					<dim>1</dim>
					<dim>32</dim>
					<dim>1</dim>
					<dim>1</dim>
				</port>
			</input>
			<output>
				<port id="2" precision="FP32" names="72">
					<dim>1</dim>
					<dim>32</dim>
					<dim>24</dim>
					<dim>24</dim>
				</port>
			</output>
		</layer>
		<layer id="29" name="16" type="Const" version="opset1">
			<data element_type="f32" shape="1" offset="20604" size="4"/>
			<rt_info>
				<attribute name="fused_names" version="0" value="16"/>
			</rt_info>
			<output>
				<port id="0" precision="FP32" names="16">
					<dim>1</dim>
				</port>
			</output>
		</layer>
		<layer id="30" name="73" type="PReLU" version="opset1">
			<rt_info>
				<attribute name="fused_names" version="0" value="73"/>
			</rt_info>
			<input>
				<port id="0" precision="FP32">
					<dim>1</dim>
					<dim>32</dim>
					<dim>24</dim>
					<dim>24</dim>
				</port>
				<port id="1" precision="FP32">
					<dim>1</dim>
				</port>
			</input>
			<output>
				<port id="2" precision="FP32" names="73">
					<dim>1</dim>
					<dim>32</dim>
					<dim>24</dim>
					<dim>24</dim>
				</port>
			</output>
		</layer>
		<layer id="31" name="74" type="MaxPool" version="opset1">
			<data strides="2, 2" pads_begin="0, 0" pads_end="0, 0" kernel="2, 2" rounding_type="floor" auto_pad="explicit"/>
			<rt_info>
				<attribute name="fused_names" version="0" value="74"/>
			</rt_info>
			<input>
				<port id="0" precision="FP32">
					<dim>1</dim>
					<dim>32</dim>
					<dim>24</dim>
					<dim>24</dim>
				</port>
			</input>
			<output>
				<port id="1" precision="FP32" names="74">
					<dim>1</dim>
					<dim>32</dim>
					<dim>12</dim>
					<dim>12</dim>
				</port>
			</output>
		</layer>
		<layer id="32" name="Reshape_1095" type="Const" version="opset1">
			<data element_type="f32" shape="1, 32, 1, 1" offset="20608" size="128"/>
			<output>
				<port id="0" precision="FP32">
					<dim>1</dim>
					<dim>32</dim>
					<dim>1</dim>
					<dim>1</dim>
				</port>
			</output>
		</layer>
		<layer id="33" name="Subtract_1098" type="Subtract" version="opset1">
			<data auto_broadcast="numpy"/>
			<rt_info>
				<attribute name="fused_names" version="0" value="75"/>
			</rt_info>
			<input>
				<port id="0" precision="FP32">
					<dim>1</dim>
					<dim>32</dim>
					<dim>12</dim>
					<dim>12</dim>
				</port>
				<port id="1" precision="FP32">
					<dim>1</dim>
					<dim>32</dim>
					<dim>1</dim>
					<dim>1</dim>
				</port>
			</input>
			<output>
				<port id="2" precision="FP32">
					<dim>1</dim>
					<dim>32</dim>
					<dim>12</dim>
					<dim>12</dim>
				</port>
			</output>
		</layer>
		<layer id="34" name="Reshape_1089" type="Const" version="opset1">
			<data element_type="f32" shape="1, 32, 1, 1" offset="20736" size="128"/>
			<output>
				<port id="0" precision="FP32">
					<dim>1</dim>
					<dim>32</dim>
					<dim>1</dim>
					<dim>1</dim>
				</port>
			</output>
		</layer>
		<layer id="35" name="Multiply_1099" type="Multiply" version="opset1">
			<data auto_broadcast="numpy"/>
			<rt_info>
				<attribute name="fused_names" version="0" value="75"/>
			</rt_info>
			<input>
				<port id="0" precision="FP32">
					<dim>1</dim>
					<dim>32</dim>
					<dim>12</dim>
					<dim>12</dim>
				</port>
				<port id="1" precision="FP32">
					<dim>1</dim>
					<dim>32</dim>
					<dim>1</dim>
					<dim>1</dim>
				</port>
			</input>
			<output>
				<port id="2" precision="FP32">
					<dim>1</dim>
					<dim>32</dim>
					<dim>12</dim>
					<dim>12</dim>
				</port>
			</output>
		</layer>
		<layer id="36" name="Reshape_1092" type="Const" version="opset1">
			<data element_type="f32" shape="1, 32, 1, 1" offset="20864" size="128"/>
			<output>
				<port id="0" precision="FP32">
					<dim>1</dim>
					<dim>32</dim>
					<dim>1</dim>
					<dim>1</dim>
				</port>
			</output>
		</layer>
		<layer id="37" name="75" type="Add" version="opset1">
			<data auto_broadcast="numpy"/>
			<rt_info>
				<attribute name="fused_names" version="0" value="75"/>
			</rt_info>
			<input>
				<port id="0" precision="FP32">
					<dim>1</dim>
					<dim>32</dim>
					<dim>12</dim>
					<dim>12</dim>
				</port>
				<port id="1" precision="FP32">
					<dim>1</dim>
					<dim>32</dim>
					<dim>1</dim>
					<dim>1</dim>
				</port>
			</input>
			<output>
				<port id="2" precision="FP32" names="75">
					<dim>1</dim>
					<dim>32</dim>
					<dim>12</dim>
					<dim>12</dim>
				</port>
			</output>
		</layer>
		<layer id="38" name="22" type="Const" version="opset1">
			<data element_type="f32" shape="64, 32, 3, 3" offset="20992" size="73728"/>
			<rt_info>
				<attribute name="fused_names" version="0" value="22"/>
			</rt_info>
			<output>
				<port id="0" precision="FP32" names="22">
					<dim>64</dim>
					<dim>32</dim>
					<dim>3</dim>
					<dim>3</dim>
				</port>
			</output>
		</layer>
		<layer id="39" name="Convolution_118" type="Convolution" version="opset1">
			<data strides="1, 1" dilations="1, 1" pads_begin="1, 1" pads_end="1, 1" auto_pad="explicit"/>
			<rt_info>
				<attribute name="fused_names" version="0" value="Convolution_118"/>
			</rt_info>
			<input>
				<port id="0" precision="FP32">
					<dim>1</dim>
					<dim>32</dim>
					<dim>12</dim>
					<dim>12</dim>
				</port>
				<port id="1" precision="FP32">
					<dim>64</dim>
					<dim>32</dim>
					<dim>3</dim>
					<dim>3</dim>
				</port>
			</input>
			<output>
				<port id="2" precision="FP32">
					<dim>1</dim>
					<dim>64</dim>
					<dim>12</dim>
					<dim>12</dim>
				</port>
			</output>
		</layer>
		<layer id="40" name="Reshape_129" type="Const" version="opset1">
			<data element_type="f32" shape="1, 64, 1, 1" offset="94720" size="256"/>
			<output>
				<port id="0" precision="FP32">
					<dim>1</dim>
					<dim>64</dim>
					<dim>1</dim>
					<dim>1</dim>
				</port>
			</output>
		</layer>
		<layer id="41" name="76" type="Add" version="opset1">
			<data auto_broadcast="numpy"/>
			<rt_info>
				<attribute name="fused_names" version="0" value="76, Concat_128, Reshape_129"/>
			</rt_info>
			<input>
				<port id="0" precision="FP32">
					<dim>1</dim>
					<dim>64</dim>
					<dim>12</dim>
					<dim>12</dim>
				</port>
				<port id="1" precision="FP32">
					<dim>1</dim>
					<dim>64</dim>
					<dim>1</dim>
					<dim>1</dim>
				</port>
			</input>
			<output>
				<port id="2" precision="FP32" names="76">
					<dim>1</dim>
					<dim>64</dim>
					<dim>12</dim>
					<dim>12</dim>
				</port>
			</output>
		</layer>
		<layer id="42" name="24" type="Const" version="opset1">
			<data element_type="f32" shape="1" offset="94976" size="4"/>
			<rt_info>
				<attribute name="fused_names" version="0" value="24"/>
			</rt_info>
			<output>
				<port id="0" precision="FP32" names="24">
					<dim>1</dim>
				</port>
			</output>
		</layer>
		<layer id="43" name="77" type="PReLU" version="opset1">
			<rt_info>
				<attribute name="fused_names" version="0" value="77"/>
			</rt_info>
			<input>
				<port id="0" precision="FP32">
					<dim>1</dim>
					<dim>64</dim>
					<dim>12</dim>
					<dim>12</dim>
				</port>
				<port id="1" precision="FP32">
					<dim>1</dim>
				</port>
			</input>
			<output>
				<port id="2" precision="FP32" names="77">
					<dim>1</dim>
					<dim>64</dim>
					<dim>12</dim>
					<dim>12</dim>
				</port>
			</output>
		</layer>
		<layer id="44" name="78" type="MaxPool" version="opset1">
			<data strides="2, 2" pads_begin="0, 0" pads_end="0, 0" kernel="2, 2" rounding_type="floor" auto_pad="explicit"/>
			<rt_info>
				<attribute name="fused_names" version="0" value="78"/>
			</rt_info>
			<input>
				<port id="0" precision="FP32">
					<dim>1</dim>
					<dim>64</dim>
					<dim>12</dim>
					<dim>12</dim>
				</port>
			</input>
			<output>
				<port id="1" precision="FP32" names="78">
					<dim>1</dim>
					<dim>64</dim>
					<dim>6</dim>
					<dim>6</dim>
				</port>
			</output>
		</layer>
		<layer id="45" name="Reshape_1118" type="Const" version="opset1">
			<data element_type="f32" shape="1, 64, 1, 1" offset="94980" size="256"/>
			<output>
				<port id="0" precision="FP32">
					<dim>1</dim>
					<dim>64</dim>
					<dim>1</dim>
					<dim>1</dim>
				</port>
			</output>
		</layer>
		<layer id="46" name="Subtract_1121" type="Subtract" version="opset1">
			<data auto_broadcast="numpy"/>
			<rt_info>
				<attribute name="fused_names" version="0" value="79"/>
			</rt_info>
			<input>
				<port id="0" precision="FP32">
					<dim>1</dim>
					<dim>64</dim>
					<dim>6</dim>
					<dim>6</dim>
				</port>
				<port id="1" precision="FP32">
					<dim>1</dim>
					<dim>64</dim>
					<dim>1</dim>
					<dim>1</dim>
				</port>
			</input>
			<output>
				<port id="2" precision="FP32">
					<dim>1</dim>
					<dim>64</dim>
					<dim>6</dim>
					<dim>6</dim>
				</port>
			</output>
		</layer>
		<layer id="47" name="Reshape_1112" type="Const" version="opset1">
			<data element_type="f32" shape="1, 64, 1, 1" offset="95236" size="256"/>
			<output>
				<port id="0" precision="FP32">
					<dim>1</dim>
					<dim>64</dim>
					<dim>1</dim>
					<dim>1</dim>
				</port>
			</output>
		</layer>
		<layer id="48" name="Multiply_1122" type="Multiply" version="opset1">
			<data auto_broadcast="numpy"/>
			<rt_info>
				<attribute name="fused_names" version="0" value="79"/>
			</rt_info>
			<input>
				<port id="0" precision="FP32">
					<dim>1</dim>
					<dim>64</dim>
					<dim>6</dim>
					<dim>6</dim>
				</port>
				<port id="1" precision="FP32">
					<dim>1</dim>
					<dim>64</dim>
					<dim>1</dim>
					<dim>1</dim>
				</port>
			</input>
			<output>
				<port id="2" precision="FP32">
					<dim>1</dim>
					<dim>64</dim>
					<dim>6</dim>
					<dim>6</dim>
				</port>
			</output>
		</layer>
		<layer id="49" name="Reshape_1115" type="Const" version="opset1">
			<data element_type="f32" shape="1, 64, 1, 1" offset="95492" size="256"/>
			<output>
				<port id="0" precision="FP32">
					<dim>1</dim>
					<dim>64</dim>
					<dim>1</dim>
					<dim>1</dim>
				</port>
			</output>
		</layer>
		<layer id="50" name="79" type="Add" version="opset1">
			<data auto_broadcast="numpy"/>
			<rt_info>
				<attribute name="fused_names" version="0" value="79"/>
			</rt_info>
			<input>
				<port id="0" precision="FP32">
					<dim>1</dim>
					<dim>64</dim>
					<dim>6</dim>
					<dim>6</dim>
				</port>
				<port id="1" precision="FP32">
					<dim>1</dim>
					<dim>64</dim>
					<dim>1</dim>
					<dim>1</dim>
				</port>
			</input>
			<output>
				<port id="2" precision="FP32" names="79">
					<dim>1</dim>
					<dim>64</dim>
					<dim>6</dim>
					<dim>6</dim>
				</port>
			</output>
		</layer>
		<layer id="51" name="30" type="Const" version="opset1">
			<data element_type="f32" shape="64, 64, 3, 3" offset="95748" size="147456"/>
			<rt_info>
				<attribute name="fused_names" version="0" value="30"/>
			</rt_info>
			<output>
				<port id="0" precision="FP32" names="30">
					<dim>64</dim>
					<dim>64</dim>
					<dim>3</dim>
					<dim>3</dim>
				</port>
			</output>
		</layer>
		<layer id="52" name="Convolution_141" type="Convolution" version="opset1">
			<data strides="1, 1" dilations="1, 1" pads_begin="1, 1" pads_end="1, 1" auto_pad="explicit"/>
			<rt_info>
				<attribute name="fused_names" version="0" value="Convolution_141"/>
			</rt_info>
			<input>
				<port id="0" precision="FP32">
					<dim>1</dim>
					<dim>64</dim>
					<dim>6</dim>
					<dim>6</dim>
				</port>
				<port id="1" precision="FP32">
					<dim>64</dim>
					<dim>64</dim>
					<dim>3</dim>
					<dim>3</dim>
				</port>
			</input>
			<output>
				<port id="2" precision="FP32">
					<dim>1</dim>
					<dim>64</dim>
					<dim>6</dim>
					<dim>6</dim>
				</port>
			</output>
		</layer>
		<layer id="53" name="Reshape_152" type="Const" version="opset1">
			<data element_type="f32" shape="1, 64, 1, 1" offset="243204" size="256"/>
			<output>
				<port id="0" precision="FP32">
					<dim>1</dim>
					<dim>64</dim>
					<dim>1</dim>
					<dim>1</dim>
				</port>
			</output>
		</layer>
		<layer id="54" name="80" type="Add" version="opset1">
			<data auto_broadcast="numpy"/>
			<rt_info>
				<attribute name="fused_names" version="0" value="80, Concat_151, Reshape_152"/>
			</rt_info>
			<input>
				<port id="0" precision="FP32">
					<dim>1</dim>
					<dim>64</dim>
					<dim>6</dim>
					<dim>6</dim>
				</port>
				<port id="1" precision="FP32">
					<dim>1</dim>
					<dim>64</dim>
					<dim>1</dim>
					<dim>1</dim>
				</port>
			</input>
			<output>
				<port id="2" precision="FP32" names="80">
					<dim>1</dim>
					<dim>64</dim>
					<dim>6</dim>
					<dim>6</dim>
				</port>
			</output>
		</layer>
		<layer id="55" name="32" type="Const" version="opset1">
			<data element_type="f32" shape="1" offset="243460" size="4"/>
			<rt_info>
				<attribute name="fused_names" version="0" value="32"/>
			</rt_info>
			<output>
				<port id="0" precision="FP32" names="32">
					<dim>1</dim>
				</port>
			</output>
		</layer>
		<layer id="56" name="81" type="PReLU" version="opset1">
			<rt_info>
				<attribute name="fused_names" version="0" value="81"/>
			</rt_info>
			<input>
				<port id="0" precision="FP32">
					<dim>1</dim>
					<dim>64</dim>
					<dim>6</dim>
					<dim>6</dim>
				</port>
				<port id="1" precision="FP32">
					<dim>1</dim>
				</port>
			</input>
			<output>
				<port id="2" precision="FP32" names="81">
					<dim>1</dim>
					<dim>64</dim>
					<dim>6</dim>
					<dim>6</dim>
				</port>
			</output>
		</layer>
		<layer id="57" name="Reshape_1141" type="Const" version="opset1">
			<data element_type="f32" shape="1, 64, 1, 1" offset="243464" size="256"/>
			<output>
				<port id="0" precision="FP32">
					<dim>1</dim>
					<dim>64</dim>
					<dim>1</dim>
					<dim>1</dim>
				</port>
			</output>
		</layer>
		<layer id="58" name="Subtract_1144" type="Subtract" version="opset1">
			<data auto_broadcast="numpy"/>
			<rt_info>
				<attribute name="fused_names" version="0" value="82"/>
			</rt_info>
			<input>
				<port id="0" precision="FP32">
					<dim>1</dim>
					<dim>64</dim>
					<dim>6</dim>
					<dim>6</dim>
				</port>
				<port id="1" precision="FP32">
					<dim>1</dim>
					<dim>64</dim>
					<dim>1</dim>
					<dim>1</dim>
				</port>
			</input>
			<output>
				<port id="2" precision="FP32">
					<dim>1</dim>
					<dim>64</dim>
					<dim>6</dim>
					<dim>6</dim>
				</port>
			</output>
		</layer>
		<layer id="59" name="Reshape_1135" type="Const" version="opset1">
			<data element_type="f32" shape="1, 64, 1, 1" offset="243720" size="256"/>
			<output>
				<port id="0" precision="FP32">
					<dim>1</dim>
					<dim>64</dim>
					<dim>1</dim>
					<dim>1</dim>
				</port>
			</output>
		</layer>
		<layer id="60" name="Multiply_1145" type="Multiply" version="opset1">
			<data auto_broadcast="numpy"/>
			<rt_info>
				<attribute name="fused_names" version="0" value="82"/>
			</rt_info>
			<input>
				<port id="0" precision="FP32">
					<dim>1</dim>
					<dim>64</dim>
					<dim>6</dim>
					<dim>6</dim>
				</port>
				<port id="1" precision="FP32">
					<dim>1</dim>
					<dim>64</dim>
					<dim>1</dim>
					<dim>1</dim>
				</port>
			</input>
			<output>
				<port id="2" precision="FP32">
					<dim>1</dim>
					<dim>64</dim>
					<dim>6</dim>
					<dim>6</dim>
				</port>
			</output>
		</layer>
		<layer id="61" name="Reshape_1138" type="Const" version="opset1">
			<data element_type="f32" shape="1, 64, 1, 1" offset="243976" size="256"/>
			<output>
				<port id="0" precision="FP32">
					<dim>1</dim>
					<dim>64</dim>
					<dim>1</dim>
					<dim>1</dim>
				</port>
			</output>
		</layer>
		<layer id="62" name="82" type="Add" version="opset1">
			<data auto_broadcast="numpy"/>
			<rt_info>
				<attribute name="fused_names" version="0" value="82"/>
			</rt_info>
			<input>
				<port id="0" precision="FP32">
					<dim>1</dim>
					<dim>64</dim>
					<dim>6</dim>
					<dim>6</dim>
				</port>
				<port id="1" precision="FP32">
					<dim>1</dim>
					<dim>64</dim>
					<dim>1</dim>
					<dim>1</dim>
				</port>
			</input>
			<output>
				<port id="2" precision="FP32" names="82">
					<dim>1</dim>
					<dim>64</dim>
					<dim>6</dim>
					<dim>6</dim>
				</port>
			</output>
		</layer>
		<layer id="63" name="38" type="Const" version="opset1">
			<data element_type="f32" shape="128, 64, 3, 3" offset="244232" size="294912"/>
			<rt_info>
				<attribute name="fused_names" version="0" value="38"/>
			</rt_info>
			<output>
				<port id="0" precision="FP32" names="38">
					<dim>128</dim>
					<dim>64</dim>
					<dim>3</dim>
					<dim>3</dim>
				</port>
			</output>
		</layer>
		<layer id="64" name="Convolution_162" type="Convolution" version="opset1">
			<data strides="1, 1" dilations="1, 1" pads_begin="1, 1" pads_end="1, 1" auto_pad="explicit"/>
			<rt_info>
				<attribute name="fused_names" version="0" value="Convolution_162"/>
			</rt_info>
			<input>
				<port id="0" precision="FP32">
					<dim>1</dim>
					<dim>64</dim>
					<dim>6</dim>
					<dim>6</dim>
				</port>
				<port id="1" precision="FP32">
					<dim>128</dim>
					<dim>64</dim>
					<dim>3</dim>
					<dim>3</dim>
				</port>
			</input>
			<output>
				<port id="2" precision="FP32">
					<dim>1</dim>
					<dim>128</dim>
					<dim>6</dim>
					<dim>6</dim>
				</port>
			</output>
		</layer>
		<layer id="65" name="Reshape_173" type="Const" version="opset1">
			<data element_type="f32" shape="1, 128, 1, 1" offset="539144" size="512"/>
			<output>
				<port id="0" precision="FP32">
					<dim>1</dim>
					<dim>128</dim>
					<dim>1</dim>
					<dim>1</dim>
				</port>
			</output>
		</layer>
		<layer id="66" name="83" type="Add" version="opset1">
			<data auto_broadcast="numpy"/>
			<rt_info>
				<attribute name="fused_names" version="0" value="83, Concat_172, Reshape_173"/>
			</rt_info>
			<input>
				<port id="0" precision="FP32">
					<dim>1</dim>
					<dim>128</dim>
					<dim>6</dim>
					<dim>6</dim>
				</port>
				<port id="1" precision="FP32">
					<dim>1</dim>
					<dim>128</dim>
					<dim>1</dim>
					<dim>1</dim>
				</port>
			</input>
			<output>
				<port id="2" precision="FP32" names="83">
					<dim>1</dim>
					<dim>128</dim>
					<dim>6</dim>
					<dim>6</dim>
				</port>
			</output>
		</layer>
		<layer id="67" name="40" type="Const" version="opset1">
			<data element_type="f32" shape="1" offset="539656" size="4"/>
			<rt_info>
				<attribute name="fused_names" version="0" value="40"/>
			</rt_info>
			<output>
				<port id="0" precision="FP32" names="40">
					<dim>1</dim>
				</port>
			</output>
		</layer>
		<layer id="68" name="84" type="PReLU" version="opset1">
			<rt_info>
				<attribute name="fused_names" version="0" value="84"/>
			</rt_info>
			<input>
				<port id="0" precision="FP32">
					<dim>1</dim>
					<dim>128</dim>
					<dim>6</dim>
					<dim>6</dim>
				</port>
				<port id="1" precision="FP32">
					<dim>1</dim>
				</port>
			</input>
			<output>
				<port id="2" precision="FP32" names="84">
					<dim>1</dim>
					<dim>128</dim>
					<dim>6</dim>
					<dim>6</dim>
				</port>
			</output>
		</layer>
		<layer id="69" name="Reshape_1164" type="Const" version="opset1">
			<data element_type="f32" shape="1, 128, 1, 1" offset="539660" size="512"/>
			<output>
				<port id="0" precision="FP32">
					<dim>1</dim>
					<dim>128</dim>
					<dim>1</dim>
					<dim>1</dim>
				</port>
			</output>
		</layer>
		<layer id="70" name="Subtract_1167" type="Subtract" version="opset1">
			<data auto_broadcast="numpy"/>
			<rt_info>
				<attribute name="fused_names" version="0" value="85"/>
			</rt_info>
			<input>
				<port id="0" precision="FP32">
					<dim>1</dim>
					<dim>128</dim>
					<dim>6</dim>
					<dim>6</dim>
				</port>
				<port id="1" precision="FP32">
					<dim>1</dim>
					<dim>128</dim>
					<dim>1</dim>
					<dim>1</dim>
				</port>
			</input>
			<output>
				<port id="2" precision="FP32">
					<dim>1</dim>
					<dim>128</dim>
					<dim>6</dim>
					<dim>6</dim>
				</port>
			</output>
		</layer>
		<layer id="71" name="Reshape_1158" type="Const" version="opset1">
			<data element_type="f32" shape="1, 128, 1, 1" offset="540172" size="512"/>
			<output>
				<port id="0" precision="FP32">
					<dim>1</dim>
					<dim>128</dim>
					<dim>1</dim>
					<dim>1</dim>
				</port>
			</output>
		</layer>
		<layer id="72" name="Multiply_1168" type="Multiply" version="opset1">
			<data auto_broadcast="numpy"/>
			<rt_info>
				<attribute name="fused_names" version="0" value="85"/>
			</rt_info>
			<input>
				<port id="0" precision="FP32">
					<dim>1</dim>
					<dim>128</dim>
					<dim>6</dim>
					<dim>6</dim>
				</port>
				<port id="1" precision="FP32">
					<dim>1</dim>
					<dim>128</dim>
					<dim>1</dim>
					<dim>1</dim>
				</port>
			</input>
			<output>
				<port id="2" precision="FP32">
					<dim>1</dim>
					<dim>128</dim>
					<dim>6</dim>
					<dim>6</dim>
				</port>
			</output>
		</layer>
		<layer id="73" name="Reshape_1161" type="Const" version="opset1">
			<data element_type="f32" shape="1, 128, 1, 1" offset="540684" size="512"/>
			<output>
				<port id="0" precision="FP32">
					<dim>1</dim>
					<dim>128</dim>
					<dim>1</dim>
					<dim>1</dim>
				</port>
			</output>
		</layer>
		<layer id="74" name="85" type="Add" version="opset1">
			<data auto_broadcast="numpy"/>
			<rt_info>
				<attribute name="fused_names" version="0" value="85"/>
			</rt_info>
			<input>
				<port id="0" precision="FP32">
					<dim>1</dim>
					<dim>128</dim>
					<dim>6</dim>
					<dim>6</dim>
				</port>
				<port id="1" precision="FP32">
					<dim>1</dim>
					<dim>128</dim>
					<dim>1</dim>
					<dim>1</dim>
				</port>
			</input>
			<output>
				<port id="2" precision="FP32" names="85">
					<dim>1</dim>
					<dim>128</dim>
					<dim>6</dim>
					<dim>6</dim>
				</port>
			</output>
		</layer>
		<layer id="75" name="Reshape_190" type="Const" version="opset1">
			<data element_type="f32" shape="128, 1, 1, 6, 6" offset="541196" size="18432"/>
			<output>
				<port id="0" precision="FP32">
					<dim>128</dim>
					<dim>1</dim>
					<dim>1</dim>
					<dim>6</dim>
					<dim>6</dim>
				</port>
			</output>
		</layer>
		<layer id="76" name="GroupConvolution_214" type="GroupConvolution" version="opset1">
			<data strides="1, 1" pads_begin="0, 0" pads_end="0, 0" dilations="1, 1" auto_pad="explicit"/>
			<rt_info>
				<attribute name="fused_names" version="0" value="GroupConvolution_214, Reshape_190"/>
			</rt_info>
			<input>
				<port id="0" precision="FP32">
					<dim>1</dim>
					<dim>128</dim>
					<dim>6</dim>
					<dim>6</dim>
				</port>
				<port id="1" precision="FP32">
					<dim>128</dim>
					<dim>1</dim>
					<dim>1</dim>
					<dim>6</dim>
					<dim>6</dim>
				</port>
			</input>
			<output>
				<port id="2" precision="FP32">
					<dim>1</dim>
					<dim>128</dim>
					<dim>1</dim>
					<dim>1</dim>
				</port>
			</output>
		</layer>
		<layer id="77" name="Reshape_225" type="Const" version="opset1">
			<data element_type="f32" shape="1, 128, 1, 1" offset="559628" size="512"/>
			<output>
				<port id="0" precision="FP32">
					<dim>1</dim>
					<dim>128</dim>
					<dim>1</dim>
					<dim>1</dim>
				</port>
			</output>
		</layer>
		<layer id="78" name="86" type="Add" version="opset1">
			<data auto_broadcast="numpy"/>
			<rt_info>
				<attribute name="fused_names" version="0" value="86, Concat_224, Reshape_225"/>
			</rt_info>
			<input>
				<port id="0" precision="FP32">
					<dim>1</dim>
					<dim>128</dim>
					<dim>1</dim>
					<dim>1</dim>
				</port>
				<port id="1" precision="FP32">
					<dim>1</dim>
					<dim>128</dim>
					<dim>1</dim>
					<dim>1</dim>
				</port>
			</input>
			<output>
				<port id="2" precision="FP32" names="86">
					<dim>1</dim>
					<dim>128</dim>
					<dim>1</dim>
					<dim>1</dim>
				</port>
			</output>
		</layer>
		<layer id="79" name="48" type="Const" version="opset1">
			<data element_type="f32" shape="1" offset="560140" size="4"/>
			<rt_info>
				<attribute name="fused_names" version="0" value="48"/>
			</rt_info>
			<output>
				<port id="0" precision="FP32" names="48">
					<dim>1</dim>
				</port>
			</output>
		</layer>
		<layer id="80" name="87" type="PReLU" version="opset1">
			<rt_info>
				<attribute name="fused_names" version="0" value="87"/>
			</rt_info>
			<input>
				<port id="0" precision="FP32">
					<dim>1</dim>
					<dim>128</dim>
					<dim>1</dim>
					<dim>1</dim>
				</port>
				<port id="1" precision="FP32">
					<dim>1</dim>
				</port>
			</input>
			<output>
				<port id="2" precision="FP32" names="87">
					<dim>1</dim>
					<dim>128</dim>
					<dim>1</dim>
					<dim>1</dim>
				</port>
			</output>
		</layer>
		<layer id="81" name="Reshape_1187" type="Const" version="opset1">
			<data element_type="f32" shape="1, 128, 1, 1" offset="560144" size="512"/>
			<output>
				<port id="0" precision="FP32">
					<dim>1</dim>
					<dim>128</dim>
					<dim>1</dim>
					<dim>1</dim>
				</port>
			</output>
		</layer>
		<layer id="82" name="Subtract_1190" type="Subtract" version="opset1">
			<data auto_broadcast="numpy"/>
			<rt_info>
				<attribute name="fused_names" version="0" value="88"/>
			</rt_info>
			<input>
				<port id="0" precision="FP32">
					<dim>1</dim>
					<dim>128</dim>
					<dim>1</dim>
					<dim>1</dim>
				</port>
				<port id="1" precision="FP32">
					<dim>1</dim>
					<dim>128</dim>
					<dim>1</dim>
					<dim>1</dim>
				</port>
			</input>
			<output>
				<port id="2" precision="FP32">
					<dim>1</dim>
					<dim>128</dim>
					<dim>1</dim>
					<dim>1</dim>
				</port>
			</output>
		</layer>
		<layer id="83" name="Reshape_1181" type="Const" version="opset1">
			<data element_type="f32" shape="1, 128, 1, 1" offset="560656" size="512"/>
			<output>
				<port id="0" precision="FP32">
					<dim>1</dim>
					<dim>128</dim>
					<dim>1</dim>
					<dim>1</dim>
				</port>
			</output>
		</layer>
		<layer id="84" name="Multiply_1191" type="Multiply" version="opset1">
			<data auto_broadcast="numpy"/>
			<rt_info>
				<attribute name="fused_names" version="0" value="88"/>
			</rt_info>
			<input>
				<port id="0" precision="FP32">
					<dim>1</dim>
					<dim>128</dim>
					<dim>1</dim>
					<dim>1</dim>
				</port>
				<port id="1" precision="FP32">
					<dim>1</dim>
					<dim>128</dim>
					<dim>1</dim>
					<dim>1</dim>
				</port>
			</input>
			<output>
				<port id="2" precision="FP32">
					<dim>1</dim>
					<dim>128</dim>
					<dim>1</dim>
					<dim>1</dim>
				</port>
			</output>
		</layer>
		<layer id="85" name="Reshape_1184" type="Const" version="opset1">
			<data element_type="f32" shape="1, 128, 1, 1" offset="561168" size="512"/>
			<output>
				<port id="0" precision="FP32">
					<dim>1</dim>
					<dim>128</dim>
					<dim>1</dim>
					<dim>1</dim>
				</port>
			</output>
		</layer>
		<layer id="86" name="88" type="Add" version="opset1">
			<data auto_broadcast="numpy"/>
			<rt_info>
				<attribute name="fused_names" version="0" value="88"/>
			</rt_info>
			<input>
				<port id="0" precision="FP32">
					<dim>1</dim>
					<dim>128</dim>
					<dim>1</dim>
					<dim>1</dim>
				</port>
				<port id="1" precision="FP32">
					<dim>1</dim>
					<dim>128</dim>
					<dim>1</dim>
					<dim>1</dim>
				</port>
			</input>
			<output>
				<port id="2" precision="FP32" names="88">
					<dim>1</dim>
					<dim>128</dim>
					<dim>1</dim>
					<dim>1</dim>
				</port>
			</output>
		</layer>
		<layer id="87" name="54" type="Const" version="opset1">
			<data element_type="f32" shape="256, 128, 1, 1" offset="561680" size="131072"/>
			<rt_info>
				<attribute name="fused_names" version="0" value="54"/>
			</rt_info>
			<output>
				<port id="0" precision="FP32" names="54">
					<dim>256</dim>
					<dim>128</dim>
					<dim>1</dim>
					<dim>1</dim>
				</port>
			</output>
		</layer>
		<layer id="88" name="Convolution_235" type="Convolution" version="opset1">
			<data strides="1, 1" dilations="1, 1" pads_begin="0, 0" pads_end="0, 0" auto_pad="explicit"/>
			<rt_info>
				<attribute name="fused_names" version="0" value="Convolution_235"/>
			</rt_info>
			<input>
				<port id="0" precision="FP32">
					<dim>1</dim>
					<dim>128</dim>
					<dim>1</dim>
					<dim>1</dim>
				</port>
				<port id="1" precision="FP32">
					<dim>256</dim>
					<dim>128</dim>
					<dim>1</dim>
					<dim>1</dim>
				</port>
			</input>
			<output>
				<port id="2" precision="FP32">
					<dim>1</dim>
					<dim>256</dim>
					<dim>1</dim>
					<dim>1</dim>
				</port>
			</output>
		</layer>
		<layer id="89" name="Reshape_246" type="Const" version="opset1">
			<data element_type="f32" shape="1, 256, 1, 1" offset="692752" size="1024"/>
			<output>
				<port id="0" precision="FP32">
					<dim>1</dim>
					<dim>256</dim>
					<dim>1</dim>
					<dim>1</dim>
				</port>
			</output>
		</layer>
		<layer id="90" name="89" type="Add" version="opset1">
			<data auto_broadcast="numpy"/>
			<rt_info>
				<attribute name="fused_names" version="0" value="89, Concat_245, Reshape_246"/>
			</rt_info>
			<input>
				<port id="0" precision="FP32">
					<dim>1</dim>
					<dim>256</dim>
					<dim>1</dim>
					<dim>1</dim>
				</port>
				<port id="1" precision="FP32">
					<dim>1</dim>
					<dim>256</dim>
					<dim>1</dim>
					<dim>1</dim>
				</port>
			</input>
			<output>
				<port id="2" precision="FP32" names="89">
					<dim>1</dim>
					<dim>256</dim>
					<dim>1</dim>
					<dim>1</dim>
				</port>
			</output>
		</layer>
		<layer id="91" name="56" type="Const" version="opset1">
			<data element_type="f32" shape="1" offset="693776" size="4"/>
			<rt_info>
				<attribute name="fused_names" version="0" value="56"/>
			</rt_info>
			<output>
				<port id="0" precision="FP32" names="56">
					<dim>1</dim>
				</port>
			</output>
		</layer>
		<layer id="92" name="90" type="PReLU" version="opset1">
			<rt_info>
				<attribute name="fused_names" version="0" value="90"/>
			</rt_info>
			<input>
				<port id="0" precision="FP32">
					<dim>1</dim>
					<dim>256</dim>
					<dim>1</dim>
					<dim>1</dim>
				</port>
				<port id="1" precision="FP32">
					<dim>1</dim>
				</port>
			</input>
			<output>
				<port id="2" precision="FP32" names="90">
					<dim>1</dim>
					<dim>256</dim>
					<dim>1</dim>
					<dim>1</dim>
				</port>
			</output>
		</layer>
		<layer id="93" name="Reshape_1210" type="Const" version="opset1">
			<data element_type="f32" shape="1, 256, 1, 1" offset="693780" size="1024"/>
			<output>
				<port id="0" precision="FP32">
					<dim>1</dim>
					<dim>256</dim>
					<dim>1</dim>
					<dim>1</dim>
				</port>
			</output>
		</layer>
		<layer id="94" name="Subtract_1213" type="Subtract" version="opset1">
			<data auto_broadcast="numpy"/>
			<rt_info>
				<attribute name="fused_names" version="0" value="91"/>
			</rt_info>
			<input>
				<port id="0" precision="FP32">
					<dim>1</dim>
					<dim>256</dim>
					<dim>1</dim>
					<dim>1</dim>
				</port>
				<port id="1" precision="FP32">
					<dim>1</dim>
					<dim>256</dim>
					<dim>1</dim>
					<dim>1</dim>
				</port>
			</input>
			<output>
				<port id="2" precision="FP32">
					<dim>1</dim>
					<dim>256</dim>
					<dim>1</dim>
					<dim>1</dim>
				</port>
			</output>
		</layer>
		<layer id="95" name="Reshape_1204" type="Const" version="opset1">
			<data element_type="f32" shape="1, 256, 1, 1" offset="694804" size="1024"/>
			<output>
				<port id="0" precision="FP32">
					<dim>1</dim>
					<dim>256</dim>
					<dim>1</dim>
					<dim>1</dim>
				</port>
			</output>
		</layer>
		<layer id="96" name="Multiply_1214" type="Multiply" version="opset1">
			<data auto_broadcast="numpy"/>
			<rt_info>
				<attribute name="fused_names" version="0" value="91"/>
			</rt_info>
			<input>
				<port id="0" precision="FP32">
					<dim>1</dim>
					<dim>256</dim>
					<dim>1</dim>
					<dim>1</dim>
				</port>
				<port id="1" precision="FP32">
					<dim>1</dim>
					<dim>256</dim>
					<dim>1</dim>
					<dim>1</dim>
				</port>
			</input>
			<output>
				<port id="2" precision="FP32">
					<dim>1</dim>
					<dim>256</dim>
					<dim>1</dim>
					<dim>1</dim>
				</port>
			</output>
		</layer>
		<layer id="97" name="Reshape_1207" type="Const" version="opset1">
			<data element_type="f32" shape="1, 256, 1, 1" offset="695828" size="1024"/>
			<output>
				<port id="0" precision="FP32">
					<dim>1</dim>
					<dim>256</dim>
					<dim>1</dim>
					<dim>1</dim>
				</port>
			</output>
		</layer>
		<layer id="98" name="91" type="Add" version="opset1">
			<data auto_broadcast="numpy"/>
			<rt_info>
				<attribute name="fused_names" version="0" value="91"/>
			</rt_info>
			<input>
				<port id="0" precision="FP32">
					<dim>1</dim>
					<dim>256</dim>
					<dim>1</dim>
					<dim>1</dim>
				</port>
				<port id="1" precision="FP32">
					<dim>1</dim>
					<dim>256</dim>
					<dim>1</dim>
					<dim>1</dim>
				</port>
			</input>
			<output>
				<port id="2" precision="FP32" names="91">
					<dim>1</dim>
					<dim>256</dim>
					<dim>1</dim>
					<dim>1</dim>
				</port>
			</output>
		</layer>
		<layer id="99" name="62" type="Const" version="opset1">
			<data element_type="f32" shape="64, 256, 1, 1" offset="696852" size="65536"/>
			<rt_info>
				<attribute name="fused_names" version="0" value="62"/>
			</rt_info>
			<output>
				<port id="0" precision="FP32" names="62">
					<dim>64</dim>
					<dim>256</dim>
					<dim>1</dim>
					<dim>1</dim>
				</port>
			</output>
		</layer>
		<layer id="100" name="Convolution_256" type="Convolution" version="opset1">
			<data strides="1, 1" dilations="1, 1" pads_begin="0, 0" pads_end="0, 0" auto_pad="explicit"/>
			<rt_info>
				<attribute name="fused_names" version="0" value="Convolution_256"/>
			</rt_info>
			<input>
				<port id="0" precision="FP32">
					<dim>1</dim>
					<dim>256</dim>
					<dim>1</dim>
					<dim>1</dim>
				</port>
				<port id="1" precision="FP32">
					<dim>64</dim>
					<dim>256</dim>
					<dim>1</dim>
					<dim>1</dim>
				</port>
			</input>
			<output>
				<port id="2" precision="FP32">
					<dim>1</dim>
					<dim>64</dim>
					<dim>1</dim>
					<dim>1</dim>
				</port>
			</output>
		</layer>
		<layer id="101" name="Reshape_267" type="Const" version="opset1">
			<data element_type="f32" shape="1, 64, 1, 1" offset="762388" size="256"/>
			<output>
				<port id="0" precision="FP32">
					<dim>1</dim>
					<dim>64</dim>
					<dim>1</dim>
					<dim>1</dim>
				</port>
			</output>
		</layer>
		<layer id="102" name="92" type="Add" version="opset1">
			<data auto_broadcast="numpy"/>
			<rt_info>
				<attribute name="fused_names" version="0" value="92, Concat_266, Reshape_267"/>
			</rt_info>
			<input>
				<port id="0" precision="FP32">
					<dim>1</dim>
					<dim>64</dim>
					<dim>1</dim>
					<dim>1</dim>
				</port>
				<port id="1" precision="FP32">
					<dim>1</dim>
					<dim>64</dim>
					<dim>1</dim>
					<dim>1</dim>
				</port>
			</input>
			<output>
				<port id="2" precision="FP32" names="92">
					<dim>1</dim>
					<dim>64</dim>
					<dim>1</dim>
					<dim>1</dim>
				</port>
			</output>
		</layer>
		<layer id="103" name="64" type="Const" version="opset1">
			<data element_type="f32" shape="1" offset="762644" size="4"/>
			<rt_info>
				<attribute name="fused_names" version="0" value="64"/>
			</rt_info>
			<output>
				<port id="0" precision="FP32" names="64">
					<dim>1</dim>
				</port>
			</output>
		</layer>
		<layer id="104" name="93" type="PReLU" version="opset1">
			<rt_info>
				<attribute name="fused_names" version="0" value="93"/>
			</rt_info>
			<input>
				<port id="0" precision="FP32">
					<dim>1</dim>
					<dim>64</dim>
					<dim>1</dim>
					<dim>1</dim>
				</port>
				<port id="1" precision="FP32">
					<dim>1</dim>
				</port>
			</input>
			<output>
				<port id="2" precision="FP32" names="93">
					<dim>1</dim>
					<dim>64</dim>
					<dim>1</dim>
					<dim>1</dim>
				</port>
			</output>
		</layer>
		<layer id="105" name="65" type="Const" version="opset1">
			<data element_type="f32" shape="10, 64, 1, 1" offset="762648" size="2560"/>
			<rt_info>
				<attribute name="fused_names" version="0" value="65"/>
			</rt_info>
			<output>
				<port id="0" precision="FP32" names="65">
					<dim>10</dim>
					<dim>64</dim>
					<dim>1</dim>
					<dim>1</dim>
				</port>
			</output>
		</layer>
		<layer id="106" name="Convolution_272" type="Convolution" version="opset1">
			<data strides="1, 1" dilations="1, 1" pads_begin="0, 0" pads_end="0, 0" auto_pad="explicit"/>
			<rt_info>
				<attribute name="fused_names" version="0" value="Convolution_272"/>
			</rt_info>
			<input>
				<port id="0" precision="FP32">
					<dim>1</dim>
					<dim>64</dim>
					<dim>1</dim>
					<dim>1</dim>
				</port>
				<port id="1" precision="FP32">
					<dim>10</dim>
					<dim>64</dim>
					<dim>1</dim>
					<dim>1</dim>
				</port>
			</input>
			<output>
				<port id="2" precision="FP32">
					<dim>1</dim>
					<dim>10</dim>
					<dim>1</dim>
					<dim>1</dim>
				</port>
			</output>
		</layer>
		<layer id="107" name="Reshape_283" type="Const" version="opset1">
			<data element_type="f32" shape="1, 10, 1, 1" offset="765208" size="40"/>
			<output>
				<port id="0" precision="FP32">
					<dim>1</dim>
					<dim>10</dim>
					<dim>1</dim>
					<dim>1</dim>
				</port>
			</output>
		</layer>
		<layer id="108" name="94" type="Add" version="opset1">
			<data auto_broadcast="numpy"/>
			<rt_info>
				<attribute name="fused_names" version="0" value="94, Concat_282, Reshape_283"/>
			</rt_info>
			<input>
				<port id="0" precision="FP32">
					<dim>1</dim>
					<dim>10</dim>
					<dim>1</dim>
					<dim>1</dim>
				</port>
				<port id="1" precision="FP32">
					<dim>1</dim>
					<dim>10</dim>
					<dim>1</dim>
					<dim>1</dim>
				</port>
			</input>
			<output>
				<port id="2" precision="FP32" names="94">
					<dim>1</dim>
					<dim>10</dim>
					<dim>1</dim>
					<dim>1</dim>
				</port>
			</output>
		</layer>
		<layer id="109" name="95" type="Sigmoid" version="opset1">
			<rt_info>
				<attribute name="fused_names" version="0" value="95"/>
			</rt_info>
			<input>
				<port id="0" precision="FP32">
					<dim>1</dim>
					<dim>10</dim>
					<dim>1</dim>
					<dim>1</dim>
				</port>
			</input>
			<output>
				<port id="1" precision="FP32" names="95">
					<dim>1</dim>
					<dim>10</dim>
					<dim>1</dim>
					<dim>1</dim>
				</port>
			</output>
		</layer>
		<layer id="110" name="95/sink_port_0" type="Result" version="opset1">
			<rt_info>
				<attribute name="fused_names" version="0" value="95/sink_port_0"/>
			</rt_info>
			<input>
				<port id="0" precision="FP32">
					<dim>1</dim>
					<dim>10</dim>
					<dim>1</dim>
					<dim>1</dim>
				</port>
			</input>
		</layer>
	</layers>
	<edges>
		<edge from-layer="0" from-port="0" to-layer="3" to-port="0"/>
		<edge from-layer="1" from-port="0" to-layer="3" to-port="1"/>
		<edge from-layer="2" from-port="0" to-layer="3" to-port="2"/>
		<edge from-layer="3" from-port="3" to-layer="5" to-port="0"/>
		<edge from-layer="4" from-port="0" to-layer="5" to-port="1"/>
		<edge from-layer="5" from-port="2" to-layer="7" to-port="0"/>
		<edge from-layer="6" from-port="0" to-layer="7" to-port="1"/>
		<edge from-layer="7" from-port="2" to-layer="9" to-port="0"/>
		<edge from-layer="8" from-port="0" to-layer="9" to-port="1"/>
		<edge from-layer="9" from-port="2" to-layer="11" to-port="0"/>
		<edge from-layer="10" from-port="0" to-layer="11" to-port="1"/>
		<edge from-layer="11" from-port="2" to-layer="13" to-port="0"/>
		<edge from-layer="12" from-port="0" to-layer="13" to-port="1"/>
		<edge from-layer="13" from-port="2" to-layer="15" to-port="0"/>
		<edge from-layer="14" from-port="0" to-layer="15" to-port="1"/>
		<edge from-layer="15" from-port="2" to-layer="17" to-port="0"/>
		<edge from-layer="16" from-port="0" to-layer="17" to-port="1"/>
		<edge from-layer="17" from-port="2" to-layer="18" to-port="0"/>
		<edge from-layer="18" from-port="1" to-layer="20" to-port="0"/>
		<edge from-layer="19" from-port="0" to-layer="20" to-port="1"/>
		<edge from-layer="20" from-port="2" to-layer="22" to-port="0"/>
		<edge from-layer="21" from-port="0" to-layer="22" to-port="1"/>
		<edge from-layer="22" from-port="2" to-layer="24" to-port="0"/>
		<edge from-layer="23" from-port="0" to-layer="24" to-port="1"/>
		<edge from-layer="24" from-port="2" to-layer="26" to-port="0"/>
		<edge from-layer="25" from-port="0" to-layer="26" to-port="1"/>
		<edge from-layer="26" from-port="2" to-layer="28" to-port="0"/>
		<edge from-layer="27" from-port="0" to-layer="28" to-port="1"/>
		<edge from-layer="28" from-port="2" to-layer="30" to-port="0"/>
		<edge from-layer="29" from-port="0" to-layer="30" to-port="1"/>
		<edge from-layer="30" from-port="2" to-layer="31" to-port="0"/>
		<edge from-layer="31" from-port="1" to-layer="33" to-port="0"/>
		<edge from-layer="32" from-port="0" to-layer="33" to-port="1"/>
		<edge from-layer="33" from-port="2" to-layer="35" to-port="0"/>
		<edge from-layer="34" from-port="0" to-layer="35" to-port="1"/>
		<edge from-layer="35" from-port="2" to-layer="37" to-port="0"/>
		<edge from-layer="36" from-port="0" to-layer="37" to-port="1"/>
		<edge from-layer="37" from-port="2" to-layer="39" to-port="0"/>
		<edge from-layer="38" from-port="0" to-layer="39" to-port="1"/>
		<edge from-layer="39" from-port="2" to-layer="41" to-port="0"/>
		<edge from-layer="40" from-port="0" to-layer="41" to-port="1"/>
		<edge from-layer="41" from-port="2" to-layer="43" to-port="0"/>
		<edge from-layer="42" from-port="0" to-layer="43" to-port="1"/>
		<edge from-layer="43" from-port="2" to-layer="44" to-port="0"/>
		<edge from-layer="44" from-port="1" to-layer="46" to-port="0"/>
		<edge from-layer="45" from-port="0" to-layer="46" to-port="1"/>
		<edge from-layer="46" from-port="2" to-layer="48" to-port="0"/>
		<edge from-layer="47" from-port="0" to-layer="48" to-port="1"/>
		<edge from-layer="48" from-port="2" to-layer="50" to-port="0"/>
		<edge from-layer="49" from-port="0" to-layer="50" to-port="1"/>
		<edge from-layer="50" from-port="2" to-layer="52" to-port="0"/>
		<edge from-layer="51" from-port="0" to-layer="52" to-port="1"/>
		<edge from-layer="52" from-port="2" to-layer="54" to-port="0"/>
		<edge from-layer="53" from-port="0" to-layer="54" to-port="1"/>
		<edge from-layer="54" from-port="2" to-layer="56" to-port="0"/>
		<edge from-layer="55" from-port="0" to-layer="56" to-port="1"/>
		<edge from-layer="56" from-port="2" to-layer="58" to-port="0"/>
		<edge from-layer="57" from-port="0" to-layer="58" to-port="1"/>
		<edge from-layer="58" from-port="2" to-layer="60" to-port="0"/>
		<edge from-layer="59" from-port="0" to-layer="60" to-port="1"/>
		<edge from-layer="60" from-port="2" to-layer="62" to-port="0"/>
		<edge from-layer="61" from-port="0" to-layer="62" to-port="1"/>
		<edge from-layer="62" from-port="2" to-layer="64" to-port="0"/>
		<edge from-layer="63" from-port="0" to-layer="64" to-port="1"/>
		<edge from-layer="64" from-port="2" to-layer="66" to-port="0"/>
		<edge from-layer="65" from-port="0" to-layer="66" to-port="1"/>
		<edge from-layer="66" from-port="2" to-layer="68" to-port="0"/>
		<edge from-layer="67" from-port="0" to-layer="68" to-port="1"/>
		<edge from-layer="68" from-port="2" to-layer="70" to-port="0"/>
		<edge from-layer="69" from-port="0" to-layer="70" to-port="1"/>
		<edge from-layer="70" from-port="2" to-layer="72" to-port="0"/>
		<edge from-layer="71" from-port="0" to-layer="72" to-port="1"/>
		<edge from-layer="72" from-port="2" to-layer="74" to-port="0"/>
		<edge from-layer="73" from-port="0" to-layer="74" to-port="1"/>
		<edge from-layer="74" from-port="2" to-layer="76" to-port="0"/>
		<edge from-layer="75" from-port="0" to-layer="76" to-port="1"/>
		<edge from-layer="76" from-port="2" to-layer="78" to-port="0"/>
		<edge from-layer="77" from-port="0" to-layer="78" to-port="1"/>
		<edge from-layer="78" from-port="2" to-layer="80" to-port="0"/>
		<edge from-layer="79" from-port="0" to-layer="80" to-port="1"/>
		<edge from-layer="80" from-port="2" to-layer="82" to-port="0"/>
		<edge from-layer="81" from-port="0" to-layer="82" to-port="1"/>
		<edge from-layer="82" from-port="2" to-layer="84" to-port="0"/>
		<edge from-layer="83" from-port="0" to-layer="84" to-port="1"/>
		<edge from-layer="84" from-port="2" to-layer="86" to-port="0"/>
		<edge from-layer="85" from-port="0" to-layer="86" to-port="1"/>
		<edge from-layer="86" from-port="2" to-layer="88" to-port="0"/>
		<edge from-layer="87" from-port="0" to-layer="88" to-port="1"/>
		<edge from-layer="88" from-port="2" to-layer="90" to-port="0"/>
		<edge from-layer="89" from-port="0" to-layer="90" to-port="1"/>
		<edge from-layer="90" from-port="2" to-layer="92" to-port="0"/>
		<edge from-layer="91" from-port="0" to-layer="92" to-port="1"/>
		<edge from-layer="92" from-port="2" to-layer="94" to-port="0"/>
		<edge from-layer="93" from-port="0" to-layer="94" to-port="1"/>
		<edge from-layer="94" from-port="2" to-layer="96" to-port="0"/>
		<edge from-layer="95" from-port="0" to-layer="96" to-port="1"/>
		<edge from-layer="96" from-port="2" to-layer="98" to-port="0"/>
		<edge from-layer="97" from-port="0" to-layer="98" to-port="1"/>
		<edge from-layer="98" from-port="2" to-layer="100" to-port="0"/>
		<edge from-layer="99" from-port="0" to-layer="100" to-port="1"/>
		<edge from-layer="100" from-port="2" to-layer="102" to-port="0"/>
		<edge from-layer="101" from-port="0" to-layer="102" to-port="1"/>
		<edge from-layer="102" from-port="2" to-layer="104" to-port="0"/>
		<edge from-layer="103" from-port="0" to-layer="104" to-port="1"/>
		<edge from-layer="104" from-port="2" to-layer="106" to-port="0"/>
		<edge from-layer="105" from-port="0" to-layer="106" to-port="1"/>
		<edge from-layer="106" from-port="2" to-layer="108" to-port="0"/>
		<edge from-layer="107" from-port="0" to-layer="108" to-port="1"/>
		<edge from-layer="108" from-port="2" to-layer="109" to-port="0"/>
		<edge from-layer="109" from-port="1" to-layer="110" to-port="0"/>
	</edges>
	<meta_data>
		<MO_version value="2022.1.0-6456-86faa257241"/>
		<cli_parameters>
			<caffe_parser_path value="DIR"/>
			<compress_fp16 value="False"/>
			<data_type value="FP32"/>
			<disable_nhwc_to_nchw value="False"/>
			<disable_omitting_optional value="False"/>
			<disable_resnet_optimization value="False"/>
			<disable_weights_compression value="False"/>
			<enable_concat_optimization value="False"/>
			<enable_flattening_nested_params value="False"/>
			<enable_ssd_gluoncv value="False"/>
			<extensions value="DIR"/>
			<framework value="onnx"/>
			<freeze_placeholder_with_value value="{}"/>
			<generate_deprecated_IR_V7 value="False"/>
			<input value="0"/>
			<input_model value="DIR/Landnet_wing_blur2_21000.onnx"/>
			<input_model_is_text value="False"/>
			<input_shape value="[1,3,48,48]"/>
			<k value="DIR/CustomLayersMapping.xml"/>
			<keep_shape_ops value="True"/>
			<layout value="0(nchw)"/>
			<layout_values value="{'0': {'source_layout': 'nchw', 'target_layout': None, 'is_input': True}}"/>
			<legacy_ir_generation value="False"/>
			<legacy_mxnet_model value="False"/>
			<log_level value="ERROR"/>
			<mean_scale_values value="{'0': {'mean': None, 'scale': array([255.])}}"/>
			<mean_values value="()"/>
			<model_name value="landmarks-regression-retail-0009"/>
			<output_dir value="DIR"/>
			<placeholder_data_types value="{}"/>
			<placeholder_shapes value="{'0': (1, 3, 48, 48)}"/>
			<progress value="False"/>
			<remove_memory value="False"/>
			<remove_output_softmax value="False"/>
			<reverse_input_channels value="True"/>
			<save_params_from_nd value="False"/>
			<scale_values value="0[255.0]"/>
			<silent value="False"/>
			<source_layout value="()"/>
			<static_shape value="False"/>
			<stream_output value="False"/>
			<target_layout value="()"/>
			<transform value=""/>
			<use_legacy_frontend value="False"/>
			<use_new_frontend value="False"/>
			<unset unset_cli_parameters="batch, counts, disable_fusing, disable_gfusing, finegrain_fusing, input_checkpoint, input_meta_graph, input_proto, input_symbol, mean_file, mean_file_offsets, move_to_preprocess, nd_prefix_name, output, pretrained_model_name, saved_model_dir, saved_model_tags, scale, tensorboard_logdir, tensorflow_custom_layer_libraries, tensorflow_custom_operations_config_update, tensorflow_object_detection_api_pipeline_config, tensorflow_use_custom_operations_config, transformations_config"/>
		</cli_parameters>
	</meta_data>
</net>
